rnn.pt (torch, 3319 bytes, 5 tensors)

weight_ih_l0 f4 [8, 1]
0	0x3e86bb0c	0.2631458
1	0x3f0ccb4e	0.5499772
2	0xbdace458	-0.084419906
3	0xbf30d49b	-0.6907441
4	0x3e28f3c0	0.16499233
5	0x3f0779dc	0.5292032
6	0xbf943ddb	-1.1581377
7	0xbf89f673	-1.0778335

weight_hh_l0 f4 [8, 2]
0	0xbfd888ee	-1.6916788
1	0xbf975de3	-1.1825527
2	0xbf0aa60c	-0.5415962
3	0x3e921bc3	0.28536806
4	0x3f4db11d	0.8034838
5	0x3fb6725b	1.4253649
6	0xbef1a4fb	-0.47196183
7	0xbefd498f	-0.49470183
8	0x3e4f4975	0.20242865
9	0xbf627e71	-0.88474184
10	0x3e9a62f7	0.3015363
11	0xbef378bb	-0.47553048
12	0x4011f8c8	2.2808094
13	0xbf746149	-0.95460945
14	0xbe6d628f	-0.23182128
15	0xbebdc117	-0.37061378

bias_ih_l0 f4 [8]
0	0xbe8f6bcd	-0.28011933
1	0x3f07aa75	0.5299447
2	0x3f409119	0.752214
3	0x3f857655	1.0426737
4	0xbec732bf	-0.38905904
5	0x3f2ee057	0.68311065
6	0x4018cdd8	2.3875637
7	0x3ef443c8	0.47707963

bias_hh_l0 f4 [8]
0	0xbe2b3693	-0.16720037
1	0x3edc3f94	0.43017256
2	0x3fa83dc9	1.3143855
3	0x3d9bb911	0.07603658
4	0x3e535c86	0.20640764
5	0x3e24779b	0.16061251
6	0x401baef5	2.4325535
7	0xbd042d7c	-0.03226994

weight f4 [1, 2]
0	0xbfef5e5f	-1.8700675
1	0x3eac6c9f	0.3367662
